…
font-style: inherit;">=</span><span class="st" style="color: #20794D;
background-color: null;
font-style: inherit;">'cuda'</span>,</span>
<span id="cb23-4">)</span>
<span id="cb23-5">model.to(<span class="st" style="color: #20794D;
background-color: null;
font-style: inherit;">'cuda'</span>)</span></code></pre></div>
<div class="cell-output cell-output-stdout">
<pre><code>2025-02-09 15:26:39,136 - INFO - Loaded model from step 19072, val_loss 3.0519702434539795</code></pre>
</div>
<div id="gpt2-v1-load-model" class="cell-output cell-output-display" data-execution_count="2">
<pre><code>GPT(
  (transformer): ModuleDict(
    (wte): Embedding(50304, 768)
    (wpe): Embedding(1024, 768)
    (h): ModuleList(
      (0-11): 12 x Block(
        (ln_1): LayerNorm((768,), eps=1e-05, elementwise_affine=True)
        (attn): CausalSelfAttention(
          (c_attn): Linear(in_features=768, out_features=2304, bias=True)
          (c_proj): Linear(in_features=768, out_features=768, bias=True)
        )
        (ln_2): LayerNorm((768,), eps=1e-05, elementwise_affine=True)
        (mlp): MLP(
          (c_fc): Linear(in_features=768, out_features=3072, bias=True)
          (gelu): GELU(approximate='tanh')
          (c_proj): Linear(in_features=3072, out_features=768, bias=True)
        )
      )
    )
    (ln_f): LayerNorm((768,), eps=1e-05, elementwise_affine=True)
  )
  (lm_head): Linear(in_features=768, out_features=50304, bias=False)
)</code></pre>
</div>
</div>
</div>
</section>
<section id="generating-text" class="level2">
<h2 class="anchored" data-anchor-id="generating-text">Generating Text</h2>
<p>Once we’ve got a model instance, text can be generated by simply calling the model’s <code>generate()</code> function with a prompt, and, optionally, some additional parameters like seed and max length. This is also referred to as inference—the two terms are interchangeable, and mean the same thing: the act of providing some input tokens—your encoded prompt—to your trained model, and having it generate tokens in response.</p>
…
