…
    "objectID": "articles/pytorch-and-python-free-threading/index.html#loading-the-model",
    "href": "articles/pytorch-and-python-free-threading/index.html#loading-the-model",
    "title": "PyTorch and Python Free-Threading",
    "section": "Loading the Model",
    "text": "Loading the Model\nWith the code above executed in a preceding Jupyter Notebook cell, we can load the model as follows:\n\n\nmodel = GPT.from_local_pretrained(\n    MODEL_CHECKPOINT,\n    map_location='cuda',\n)\nmodel.to('cuda')\n\n2025-02-09 15:26:39,136 - INFO - Loaded model from step 19072, val_loss 3.0519702434539795\n\n\nGPT(\n  (transformer): ModuleDict(\n    (wte): Embedding(50304, 768)\n    (wpe): Embedding(1024, 768)\n    (h): ModuleList(\n      (0-11): 12 x Block(\n        (ln_1): LayerNorm((768,), eps=1e-05, elementwise_affine=True)\n        (attn): CausalSelfAttention(\n          (c_attn): Linear(in_features=768, out_features=2304, bias=True)\n          (c_proj): Linear(in_features=768, out_features=768, bias=True)\n        )\n        (ln_2): LayerNorm((768,), eps=1e-05, elementwise_affine=True)\n        (mlp): MLP(\n          (c_fc): Linear(in_features=768, out_features=3072, bias=True)\n          (gelu): GELU(approximate='tanh')\n          (c_proj): Linear(in_features=3072, out_features=768, bias=True)\n        )\n      )\n    )\n    (ln_f): LayerNorm((768,), eps=1e-05, elementwise_affine=True)\n  )\n  (lm_head): Linear(in_features=768, out_features=50304, bias=False)\n)"
  },
  {
    "objectID": "articles/pytorch-and-python-free-threading/index.html#generating-text",
    "href": "articles/pytorch-and-python-free-threading/index.html#generating-text",
    "title": "PyTorch and Python Free-Threading",
    "section": "Generating Text",
    "text": "Generating Text\nOnce we’ve got a model instance, text can be gener
…
